Model: "functional_1"
┏━━━━━━━━━━━━━━━━━━━━━┳━━━━━━━━━━━━━━━━━━━┳━━━━━━━━━━━━┳━━━━━━━━━━━━━━━━━━━┓
┃ Layer (type)        ┃ Output Shape      ┃    Param # ┃ Connected to      ┃
┡━━━━━━━━━━━━━━━━━━━━━╇━━━━━━━━━━━━━━━━━━━╇━━━━━━━━━━━━╇━━━━━━━━━━━━━━━━━━━┩
│ host_is_superhost   │ (None, 1)         │          0 │ -                 │
│ (InputLayer)        │                   │            │                   │
├─────────────────────┼───────────────────┼────────────┼───────────────────┤
│ host_listings_count │ (None, 1)         │          0 │ -                 │
│ (InputLayer)        │                   │            │                   │
├─────────────────────┼───────────────────┼────────────┼───────────────────┤
│ host_total_listing… │ (None, 1)         │          0 │ -                 │
│ (InputLayer)        │                   │            │                   │
├─────────────────────┼───────────────────┼────────────┼───────────────────┤
│ host_has_profile_p… │ (None, 1)         │          0 │ -                 │
│ (InputLayer)        │                   │            │                   │
├─────────────────────┼───────────────────┼────────────┼───────────────────┤
│ accommodates        │ (None, 1)         │          0 │ -                 │
│ (InputLayer)        │                   │            │                   │
├─────────────────────┼───────────────────┼────────────┼───────────────────┤
│ bedrooms            │ (None, 1)         │          0 │ -                 │
│ (InputLayer)        │                   │            │                   │
├─────────────────────┼───────────────────┼────────────┼───────────────────┤
│ beds (InputLayer)   │ (None, 1)         │          0 │ -                 │
├─────────────────────┼───────────────────┼────────────┼───────────────────┤
│ minimum_nights      │ (None, 1)         │          0 │ -                 │
│ (InputLayer)        │                   │            │                   │
├─────────────────────┼───────────────────┼────────────┼───────────────────┤
│ maximum_nights      │ (None, 1)         │          0 │ -                 │
│ (InputLayer)        │                   │            │                   │
├─────────────────────┼───────────────────┼────────────┼───────────────────┤
│ availability_365    │ (None, 1)         │          0 │ -                 │
│ (InputLayer)        │                   │            │                   │
├─────────────────────┼───────────────────┼────────────┼───────────────────┤
│ number_of_reviews   │ (None, 1)         │          0 │ -                 │
│ (InputLayer)        │                   │            │                   │
├─────────────────────┼───────────────────┼────────────┼───────────────────┤
│ availability_eoy    │ (None, 1)         │          0 │ -                 │
│ (InputLayer)        │                   │            │                   │
├─────────────────────┼───────────────────┼────────────┼───────────────────┤
│ estimated_occupanc… │ (None, 1)         │          0 │ -                 │
│ (InputLayer)        │                   │            │                   │
├─────────────────────┼───────────────────┼────────────┼───────────────────┤
│ estimated_revenue_… │ (None, 1)         │          0 │ -                 │
│ (InputLayer)        │                   │            │                   │
├─────────────────────┼───────────────────┼────────────┼───────────────────┤
│ instant_bookable    │ (None, 1)         │          0 │ -                 │
│ (InputLayer)        │                   │            │                   │
├─────────────────────┼───────────────────┼────────────┼───────────────────┤
│ calculated_host_li… │ (None, 1)         │          0 │ -                 │
│ (InputLayer)        │                   │            │                   │
├─────────────────────┼───────────────────┼────────────┼───────────────────┤
│ neighbourhood_clea… │ (None, 1)         │          0 │ -                 │
│ (InputLayer)        │                   │            │                   │
├─────────────────────┼───────────────────┼────────────┼───────────────────┤
│ property_type       │ (None, 1)         │          0 │ -                 │
│ (InputLayer)        │                   │            │                   │
├─────────────────────┼───────────────────┼────────────┼───────────────────┤
│ room_type           │ (None, 1)         │          0 │ -                 │
│ (InputLayer)        │                   │            │                   │
├─────────────────────┼───────────────────┼────────────┼───────────────────┤
│ host_response_rate  │ (None, 1)         │          0 │ -                 │
│ (InputLayer)        │                   │            │                   │
├─────────────────────┼───────────────────┼────────────┼───────────────────┤
│ host_acceptance_ra… │ (None, 1)         │          0 │ -                 │
│ (InputLayer)        │                   │            │                   │
├─────────────────────┼───────────────────┼────────────┼───────────────────┤
│ latitude            │ (None, 1)         │          0 │ -                 │
│ (InputLayer)        │                   │            │                   │
├─────────────────────┼───────────────────┼────────────┼───────────────────┤
│ longitude           │ (None, 1)         │          0 │ -                 │
│ (InputLayer)        │                   │            │                   │
├─────────────────────┼───────────────────┼────────────┼───────────────────┤
│ review_scores_rati… │ (None, 1)         │          0 │ -                 │
│ (InputLayer)        │                   │            │                   │
├─────────────────────┼───────────────────┼────────────┼───────────────────┤
│ review_scores_accu… │ (None, 1)         │          0 │ -                 │
│ (InputLayer)        │                   │            │                   │
├─────────────────────┼───────────────────┼────────────┼───────────────────┤
│ reviews_per_month   │ (None, 1)         │          0 │ -                 │
│ (InputLayer)        │                   │            │                   │
├─────────────────────┼───────────────────┼────────────┼───────────────────┤
│ integer_lookup_32   │ (None, 3)         │          0 │ host_is_superhos… │
│ (IntegerLookup)     │                   │            │                   │
├─────────────────────┼───────────────────┼────────────┼───────────────────┤
│ integer_lookup_33   │ (None, 97)        │          0 │ host_listings_co… │
│ (IntegerLookup)     │                   │            │                   │
├─────────────────────┼───────────────────┼────────────┼───────────────────┤
│ integer_lookup_34   │ (None, 127)       │          0 │ host_total_listi… │
│ (IntegerLookup)     │                   │            │                   │
├─────────────────────┼───────────────────┼────────────┼───────────────────┤
│ integer_lookup_35   │ (None, 3)         │          0 │ host_has_profile… │
│ (IntegerLookup)     │                   │            │                   │
├─────────────────────┼───────────────────┼────────────┼───────────────────┤
│ integer_lookup_36   │ (None, 17)        │          0 │ accommodates[0][… │
│ (IntegerLookup)     │                   │            │                   │
├─────────────────────┼───────────────────┼────────────┼───────────────────┤
│ integer_lookup_37   │ (None, 22)        │          0 │ bedrooms[0][0]    │
│ (IntegerLookup)     │                   │            │                   │
├─────────────────────┼───────────────────┼────────────┼───────────────────┤
│ integer_lookup_38   │ (None, 28)        │          0 │ beds[0][0]        │
│ (IntegerLookup)     │                   │            │                   │
├─────────────────────┼───────────────────┼────────────┼───────────────────┤
│ integer_lookup_39   │ (None, 55)        │          0 │ minimum_nights[0… │
│ (IntegerLookup)     │                   │            │                   │
├─────────────────────┼───────────────────┼────────────┼───────────────────┤
│ integer_lookup_40   │ (None, 163)       │          0 │ maximum_nights[0… │
│ (IntegerLookup)     │                   │            │                   │
├─────────────────────┼───────────────────┼────────────┼───────────────────┤
│ integer_lookup_41   │ (None, 367)       │          0 │ availability_365… │
│ (IntegerLookup)     │                   │            │                   │
├─────────────────────┼───────────────────┼────────────┼───────────────────┤
│ integer_lookup_42   │ (None, 597)       │          0 │ number_of_review… │
│ (IntegerLookup)     │                   │            │                   │
├─────────────────────┼───────────────────┼────────────┼───────────────────┤
│ integer_lookup_43   │ (None, 111)       │          0 │ availability_eoy… │
│ (IntegerLookup)     │                   │            │                   │
├─────────────────────┼───────────────────┼────────────┼───────────────────┤
│ integer_lookup_44   │ (None, 91)        │          0 │ estimated_occupa… │
│ (IntegerLookup)     │                   │            │                   │
├─────────────────────┼───────────────────┼────────────┼───────────────────┤
│ integer_lookup_45   │ (None, 3407)      │          0 │ estimated_revenu… │
│ (IntegerLookup)     │                   │            │                   │
├─────────────────────┼───────────────────┼────────────┼───────────────────┤
│ integer_lookup_46   │ (None, 3)         │          0 │ instant_bookable… │
│ (IntegerLookup)     │                   │            │                   │
├─────────────────────┼───────────────────┼────────────┼───────────────────┤
│ integer_lookup_47   │ (None, 72)        │          0 │ calculated_host_… │
│ (IntegerLookup)     │                   │            │                   │
├─────────────────────┼───────────────────┼────────────┼───────────────────┤
│ string_lookup_6     │ (None, 70)        │          0 │ neighbourhood_cl… │
│ (StringLookup)      │                   │            │                   │
├─────────────────────┼───────────────────┼────────────┼───────────────────┤
│ string_lookup_7     │ (None, 48)        │          0 │ property_type[0]… │
│ (StringLookup)      │                   │            │                   │
├─────────────────────┼───────────────────┼────────────┼───────────────────┤
│ string_lookup_8     │ (None, 5)         │          0 │ room_type[0][0]   │
│ (StringLookup)      │                   │            │                   │
├─────────────────────┼───────────────────┼────────────┼───────────────────┤
│ normalization_14    │ (None, 1)         │          3 │ host_response_ra… │
│ (Normalization)     │                   │            │                   │
├─────────────────────┼───────────────────┼────────────┼───────────────────┤
│ normalization_15    │ (None, 1)         │          3 │ host_acceptance_… │
│ (Normalization)     │                   │            │                   │
├─────────────────────┼───────────────────┼────────────┼───────────────────┤
│ normalization_16    │ (None, 1)         │          3 │ latitude[0][0]    │
│ (Normalization)     │                   │            │                   │
├─────────────────────┼───────────────────┼────────────┼───────────────────┤
│ normalization_17    │ (None, 1)         │          3 │ longitude[0][0]   │
│ (Normalization)     │                   │            │                   │
├─────────────────────┼───────────────────┼────────────┼───────────────────┤
│ normalization_18    │ (None, 1)         │          3 │ review_scores_ra… │
│ (Normalization)     │                   │            │                   │
├─────────────────────┼───────────────────┼────────────┼───────────────────┤
│ normalization_19    │ (None, 1)         │          3 │ review_scores_ac… │
│ (Normalization)     │                   │            │                   │
├─────────────────────┼───────────────────┼────────────┼───────────────────┤
│ normalization_20    │ (None, 1)         │          3 │ reviews_per_mont… │
│ (Normalization)     │                   │            │                   │
├─────────────────────┼───────────────────┼────────────┼───────────────────┤
│ concatenate_2       │ (None, 5293)      │          0 │ integer_lookup_3… │
│ (Concatenate)       │                   │            │ integer_lookup_3… │
│                     │                   │            │ integer_lookup_3… │
│                     │                   │            │ integer_lookup_3… │
│                     │                   │            │ integer_lookup_3… │
│                     │                   │            │ integer_lookup_3… │
…
│                     │                   │            │ normalization_14… │
│                     │                   │            │ normalization_15… │
│                     │                   │            │ normalization_16… │
│                     │                   │            │ normalization_17… │
│                     │                   │            │ normalization_18… │
│                     │                   │            │ normalization_19… │
│                     │                   │            │ normalization_20… │
├─────────────────────┼───────────────────┼────────────┼───────────────────┤
│ dense_6 (Dense)     │ (None, 64)        │    338,816 │ concatenate_2[0]… │
├─────────────────────┼───────────────────┼────────────┼───────────────────┤
│ dense_7 (Dense)     │ (None, 64)        │      4,160 │ dense_6[0][0]     │
├─────────────────────┼───────────────────┼────────────┼───────────────────┤
│ dense_8 (Dense)     │ (None, 64)        │      4,160 │ dense_7[0][0]     │
├─────────────────────┼───────────────────┼────────────┼───────────────────┤
│ dense_9 (Dense)     │ (None, 64)        │      4,160 │ dense_8[0][0]     │
├─────────────────────┼───────────────────┼────────────┼───────────────────┤
│ dense_10 (Dense)    │ (None, 64)        │      4,160 │ dense_9[0][0]     │
├─────────────────────┼───────────────────┼────────────┼───────────────────┤
│ dense_11 (Dense)    │ (None, 1)         │         65 │ dense_10[0][0]    │
└─────────────────────┴───────────────────┴────────────┴───────────────────┘
 Total params: 355,542 (1.36 MB)
 Trainable params: 355,521 (1.36 MB)
 Non-trainable params: 21 (112.00 B)
