Model: "functional"
┏━━━━━━━━━━━━━━━━━━━━━┳━━━━━━━━━━━━━━━━━━━┳━━━━━━━━━━━━┳━━━━━━━━━━━━━━━━━━━┓
┃ Layer (type)        ┃ Output Shape      ┃    Param # ┃ Connected to      ┃
┡━━━━━━━━━━━━━━━━━━━━━╇━━━━━━━━━━━━━━━━━━━╇━━━━━━━━━━━━╇━━━━━━━━━━━━━━━━━━━┩
│ host_is_superhost   │ (None, 1)         │          0 │ -                 │
│ (InputLayer)        │                   │            │                   │
├─────────────────────┼───────────────────┼────────────┼───────────────────┤
│ host_listings_count │ (None, 1)         │          0 │ -                 │
│ (InputLayer)        │                   │            │                   │
├─────────────────────┼───────────────────┼────────────┼───────────────────┤
│ host_total_listing… │ (None, 1)         │          0 │ -                 │
│ (InputLayer)        │                   │            │                   │
├─────────────────────┼───────────────────┼────────────┼───────────────────┤
│ host_has_profile_p… │ (None, 1)         │          0 │ -                 │
│ (InputLayer)        │                   │            │                   │
├─────────────────────┼───────────────────┼────────────┼───────────────────┤
│ accommodates        │ (None, 1)         │          0 │ -                 │
│ (InputLayer)        │                   │            │                   │
├─────────────────────┼───────────────────┼────────────┼───────────────────┤
│ bedrooms            │ (None, 1)         │          0 │ -                 │
│ (InputLayer)        │                   │            │                   │
├─────────────────────┼───────────────────┼────────────┼───────────────────┤
│ beds (InputLayer)   │ (None, 1)         │          0 │ -                 │
├─────────────────────┼───────────────────┼────────────┼───────────────────┤
│ minimum_nights      │ (None, 1)         │          0 │ -                 │
│ (InputLayer)        │                   │            │                   │
├─────────────────────┼───────────────────┼────────────┼───────────────────┤
│ maximum_nights      │ (None, 1)         │          0 │ -                 │
│ (InputLayer)        │                   │            │                   │
├─────────────────────┼───────────────────┼────────────┼───────────────────┤
│ availability_365    │ (None, 1)         │          0 │ -                 │
│ (InputLayer)        │                   │            │                   │
├─────────────────────┼───────────────────┼────────────┼───────────────────┤
│ number_of_reviews   │ (None, 1)         │          0 │ -                 │
│ (InputLayer)        │                   │            │                   │
├─────────────────────┼───────────────────┼────────────┼───────────────────┤
│ availability_eoy    │ (None, 1)         │          0 │ -                 │
│ (InputLayer)        │                   │            │                   │
├─────────────────────┼───────────────────┼────────────┼───────────────────┤
│ estimated_occupanc… │ (None, 1)         │          0 │ -                 │
│ (InputLayer)        │                   │            │                   │
├─────────────────────┼───────────────────┼────────────┼───────────────────┤
│ estimated_revenue_… │ (None, 1)         │          0 │ -                 │
│ (InputLayer)        │                   │            │                   │
├─────────────────────┼───────────────────┼────────────┼───────────────────┤
│ instant_bookable    │ (None, 1)         │          0 │ -                 │
│ (InputLayer)        │                   │            │                   │
├─────────────────────┼───────────────────┼────────────┼───────────────────┤
│ calculated_host_li… │ (None, 1)         │          0 │ -                 │
│ (InputLayer)        │                   │            │                   │
├─────────────────────┼───────────────────┼────────────┼───────────────────┤
│ neighbourhood_clea… │ (None, 1)         │          0 │ -                 │
│ (InputLayer)        │                   │            │                   │
├─────────────────────┼───────────────────┼────────────┼───────────────────┤
│ property_type       │ (None, 1)         │          0 │ -                 │
│ (InputLayer)        │                   │            │                   │
├─────────────────────┼───────────────────┼────────────┼───────────────────┤
│ room_type           │ (None, 1)         │          0 │ -                 │
│ (InputLayer)        │                   │            │                   │
├─────────────────────┼───────────────────┼────────────┼───────────────────┤
│ host_response_rate  │ (None, 1)         │          0 │ -                 │
│ (InputLayer)        │                   │            │                   │
├─────────────────────┼───────────────────┼────────────┼───────────────────┤
│ host_acceptance_ra… │ (None, 1)         │          0 │ -                 │
│ (InputLayer)        │                   │            │                   │
├─────────────────────┼───────────────────┼────────────┼───────────────────┤
│ latitude            │ (None, 1)         │          0 │ -                 │
│ (InputLayer)        │                   │            │                   │
├─────────────────────┼───────────────────┼────────────┼───────────────────┤
│ longitude           │ (None, 1)         │          0 │ -                 │
│ (InputLayer)        │                   │            │                   │
├─────────────────────┼───────────────────┼────────────┼───────────────────┤
│ review_scores_rati… │ (None, 1)         │          0 │ -                 │
│ (InputLayer)        │                   │            │                   │
├─────────────────────┼───────────────────┼────────────┼───────────────────┤
│ review_scores_accu… │ (None, 1)         │          0 │ -                 │
│ (InputLayer)        │                   │            │                   │
├─────────────────────┼───────────────────┼────────────┼───────────────────┤
│ reviews_per_month   │ (None, 1)         │          0 │ -                 │
│ (InputLayer)        │                   │            │                   │
├─────────────────────┼───────────────────┼────────────┼───────────────────┤
│ integer_lookup_16   │ (None, 3)         │          0 │ host_is_superhos… │
│ (IntegerLookup)     │                   │            │                   │
├─────────────────────┼───────────────────┼────────────┼───────────────────┤
│ integer_lookup_17   │ (None, 97)        │          0 │ host_listings_co… │
│ (IntegerLookup)     │                   │            │                   │
├─────────────────────┼───────────────────┼────────────┼───────────────────┤
│ integer_lookup_18   │ (None, 127)       │          0 │ host_total_listi… │
│ (IntegerLookup)     │                   │            │                   │
├─────────────────────┼───────────────────┼────────────┼───────────────────┤
│ integer_lookup_19   │ (None, 3)         │          0 │ host_has_profile… │
│ (IntegerLookup)     │                   │            │                   │
├─────────────────────┼───────────────────┼────────────┼───────────────────┤
│ integer_lookup_20   │ (None, 17)        │          0 │ accommodates[0][… │
│ (IntegerLookup)     │                   │            │                   │
├─────────────────────┼───────────────────┼────────────┼───────────────────┤
│ integer_lookup_21   │ (None, 22)        │          0 │ bedrooms[0][0]    │
│ (IntegerLookup)     │                   │            │                   │
├─────────────────────┼───────────────────┼────────────┼───────────────────┤
│ integer_lookup_22   │ (None, 28)        │          0 │ beds[0][0]        │
│ (IntegerLookup)     │                   │            │                   │
├─────────────────────┼───────────────────┼────────────┼───────────────────┤
│ integer_lookup_23   │ (None, 55)        │          0 │ minimum_nights[0… │
│ (IntegerLookup)     │                   │            │                   │
├─────────────────────┼───────────────────┼────────────┼───────────────────┤
│ integer_lookup_24   │ (None, 163)       │          0 │ maximum_nights[0… │
│ (IntegerLookup)     │                   │            │                   │
├─────────────────────┼───────────────────┼────────────┼───────────────────┤
│ integer_lookup_25   │ (None, 367)       │          0 │ availability_365… │
│ (IntegerLookup)     │                   │            │                   │
├─────────────────────┼───────────────────┼────────────┼───────────────────┤
│ integer_lookup_26   │ (None, 597)       │          0 │ number_of_review… │
│ (IntegerLookup)     │                   │            │                   │
├─────────────────────┼───────────────────┼────────────┼───────────────────┤
│ integer_lookup_27   │ (None, 111)       │          0 │ availability_eoy… │
│ (IntegerLookup)     │                   │            │                   │
├─────────────────────┼───────────────────┼────────────┼───────────────────┤
│ integer_lookup_28   │ (None, 91)        │          0 │ estimated_occupa… │
│ (IntegerLookup)     │                   │            │                   │
├─────────────────────┼───────────────────┼────────────┼───────────────────┤
│ integer_lookup_29   │ (None, 3407)      │          0 │ estimated_revenu… │
│ (IntegerLookup)     │                   │            │                   │
├─────────────────────┼───────────────────┼────────────┼───────────────────┤
│ integer_lookup_30   │ (None, 3)         │          0 │ instant_bookable… │
│ (IntegerLookup)     │                   │            │                   │
├─────────────────────┼───────────────────┼────────────┼───────────────────┤
│ integer_lookup_31   │ (None, 72)        │          0 │ calculated_host_… │
│ (IntegerLookup)     │                   │            │                   │
├─────────────────────┼───────────────────┼────────────┼───────────────────┤
│ string_lookup_3     │ (None, 70)        │          0 │ neighbourhood_cl… │
│ (StringLookup)      │                   │            │                   │
├─────────────────────┼───────────────────┼────────────┼───────────────────┤
│ string_lookup_4     │ (None, 48)        │          0 │ property_type[0]… │
│ (StringLookup)      │                   │            │                   │
├─────────────────────┼───────────────────┼────────────┼───────────────────┤
│ string_lookup_5     │ (None, 5)         │          0 │ room_type[0][0]   │
│ (StringLookup)      │                   │            │                   │
├─────────────────────┼───────────────────┼────────────┼───────────────────┤
│ normalization_7     │ (None, 1)         │          3 │ host_response_ra… │
│ (Normalization)     │                   │            │                   │
├─────────────────────┼───────────────────┼────────────┼───────────────────┤
│ normalization_8     │ (None, 1)         │          3 │ host_acceptance_… │
│ (Normalization)     │                   │            │                   │
├─────────────────────┼───────────────────┼────────────┼───────────────────┤
│ normalization_9     │ (None, 1)         │          3 │ latitude[0][0]    │
│ (Normalization)     │                   │            │                   │
├─────────────────────┼───────────────────┼────────────┼───────────────────┤
│ normalization_10    │ (None, 1)         │          3 │ longitude[0][0]   │
│ (Normalization)     │                   │            │                   │
├─────────────────────┼───────────────────┼────────────┼───────────────────┤
│ normalization_11    │ (None, 1)         │          3 │ review_scores_ra… │
│ (Normalization)     │                   │            │                   │
├─────────────────────┼───────────────────┼────────────┼───────────────────┤
│ normalization_12    │ (None, 1)         │          3 │ review_scores_ac… │
│ (Normalization)     │                   │            │                   │
├─────────────────────┼───────────────────┼────────────┼───────────────────┤
│ normalization_13    │ (None, 1)         │          3 │ reviews_per_mont… │
│ (Normalization)     │                   │            │                   │
├─────────────────────┼───────────────────┼────────────┼───────────────────┤
│ concatenate_1       │ (None, 5293)      │          0 │ integer_lookup_1… │
│ (Concatenate)       │                   │            │ integer_lookup_1… │
│                     │                   │            │ integer_lookup_1… │
│                     │                   │            │ integer_lookup_1… │
│                     │                   │            │ integer_lookup_2… │
│                     │                   │            │ integer_lookup_2… │
…
│                     │                   │            │ normalization_7[… │
│                     │                   │            │ normalization_8[… │
│                     │                   │            │ normalization_9[… │
│                     │                   │            │ normalization_10… │
│                     │                   │            │ normalization_11… │
│                     │                   │            │ normalization_12… │
│                     │                   │            │ normalization_13… │
├─────────────────────┼───────────────────┼────────────┼───────────────────┤
│ dense (Dense)       │ (None, 64)        │    338,816 │ concatenate_1[0]… │
├─────────────────────┼───────────────────┼────────────┼───────────────────┤
│ dense_1 (Dense)     │ (None, 64)        │      4,160 │ dense[0][0]       │
├─────────────────────┼───────────────────┼────────────┼───────────────────┤
│ dense_2 (Dense)     │ (None, 64)        │      4,160 │ dense_1[0][0]     │
├─────────────────────┼───────────────────┼────────────┼───────────────────┤
│ dense_3 (Dense)     │ (None, 64)        │      4,160 │ dense_2[0][0]     │
├─────────────────────┼───────────────────┼────────────┼───────────────────┤
│ dense_4 (Dense)     │ (None, 64)        │      4,160 │ dense_3[0][0]     │
├─────────────────────┼───────────────────┼────────────┼───────────────────┤
│ dense_5 (Dense)     │ (None, 1)         │         65 │ dense_4[0][0]     │
└─────────────────────┴───────────────────┴────────────┴───────────────────┘
 Total params: 355,542 (1.36 MB)
 Trainable params: 355,521 (1.36 MB)
 Non-trainable params: 21 (112.00 B)
